model.pth (torch, 17280 bytes, 4 tensors)

linear1.weight f4 [256, 11]
0.25786185 0.5823965 -0.50950724 0.35339558 0.42332298 0.4286884 0.51611274 0.16501394
0.104749925 0.4210222 0.27390236 -1.5212939 -0.045274004 0.15767917 0.91528577 -0.6923556
-0.4102405 0.49663046 -0.5991038 0.90672326 0.552209 -0.24986468 0.09462668 0.061082065
-0.38608554 -0.30699947 0.12152969 -0.36147186 -0.08687833 -0.009674436 0.11327154 -0.052080702
-0.3393435 0.25493434 0.02602979 -0.10336446 0.24729359 -0.59865296 0.2676588 -0.7434895
-1.0818063 -0.4136652 0.7096315 -0.51313347 -0.61315775 -0.46375647 0.055033088 -0.46237648
0.045141056 -0.5358484 0.5495551 0.24514398 -0.44027412 -0.71601677 -1.0378414 0.16713476
0.051395766 0.09221361 -0.26523012 -0.48362058 -0.23407611 -0.1437926 0.075074166 0.17364283
0.133804 0.037818667 -0.73736495 0.43097726 0.22113177 0.59876776 0.15678567 0.32781276
-0.23603866 -0.30712676 0.34939656 -0.33099902 -0.5487669 0.44537845 -0.78478914 0.63331974
-0.21724571 -0.4616813 -0.1790117 -0.3901941 -0.2834531 -0.059071742 -0.81409556 -0.31187192
0.17248519 0.48096848 -0.6195081 -0.661495 0.7602193 -0.26378942 0.19494706 -0.81551754
0.56065255 -0.29818562 -0.8319514 0.2067148 -0.43547127 0.15096614 -0.36238247 -0.1640166
-0.0895493 -0.21870029 0.13356076 -0.085310966 0.057984915 -0.11329202 -0.6290517 -0.89291286
-0.28335708 -0.38232026 0.64063776 0.3705053 -0.36687255 -1.0267143 0.25440726 -0.16184857
-0.828381 0.15616381 0.034370154 -0.1471153 0.1053324 0.009517219 -0.19020158 -0.25985634
0.041599996 -0.026082864 -0.07518431 -0.21431136 -0.39725953 -0.0058012046 -0.4426061 0.44845968
0.4735474 -1.168761 -1.1523849 0.8229384 0.66471416 -0.88702357 -0.78023523 -0.1816474
0.10766621 0.05150968 -1.0110766 0.34021735 -1.1846079 0.26714095 -0.6568246 0.8045826
-1.491629 -1.5030088 -0.49423453 -0.22439495 0.079432815 -0.08431199 -0.19090873 -0.118811585
0.052383065 0.0075152977 0.11091019 0.31008938 0.14861989 -0.44769296 0.74788964 0.37958038
-0.30326822 -0.20272452 0.17187957 -0.6452489 -0.056472167 -0.796103 -1.6325605 -0.73152256
0.3118884 0.16952848 -0.069037735 -0.27350745 0.56819785 0.38981098 0.51429784 -0.10294867
-0.71393865 -0.3089243 -0.25602067 -0.06695459 -0.30646285 0.364324 -0.42718247 -0.39220688
-0.1581774 0.025206551 -0.021241805 -0.21768169 -0.31676307 -0.42484784 0.12717019 -0.14188743
-0.95093405 0.2770666 0.022098895 -0.27004772 -0.34386024 -0.2901856 0.005145688 -0.49743038
0.016728215 -0.2536475 -0.13855797 0.15919563 0.0532647 -0.21849225 0.022651788 0.036998145
-0.32879326 -0.40652564 -0.17268327 -0.25979948 -0.11210932 0.19995628 -0.16050221 -0.39399645
-0.20742059 -0.18189214 -0.2037032 0.024924468 -0.037378043 0.20514205 0.26785055 -0.82101476
-0.79403836 0.51777625 -1.0186746 -0.5947479 -0.47352874 0.9579155 -1.4654865 -1.4640926
0.55125344 -0.8292068 0.41910148 -0.006757358 0.46234936 -0.5645494 0.094551064 -0.7660799
0.32907468 0.3620403 -0.23849809 0.46670488 0.14368853 1.4889835 0.13218792 -0.80868757
00000000: 7806 843e f017 153f 116f 02bf 44f0 b43e
00000010: cabd d83e 0c7d db3e f71f 043f 6af9 283e
00000020: 2187 d63d 3990 d73e ee3c 8c3e c2b9 c2bf
00000030: 3c71 39bd a676 213e 2b50 6a3f 373e 31bf
00000040: 0b0b d2be 5946 fe3e de5e 19bf 041f 683f
00000050: 925d 0d3f 87dc 7fbe a2cb c13d 3031 7a3d
00000060: 01ad c5be 092f 9dbe 8fe4 f83d d712 b9be
00000070: 44ed b1bd 8781 1ebc e9fa e73d 9352 55bd
00000080: 6ebe adbe c186 823e 6d3c d53c bfb0 d3bd
00000090: 883a 7d3e 5241 19bf 930a 893e 5455 3ebf
000000a0: a178 8abf edcb d3be 69aa 353f b75c 03bf
000000b0: e8f7 1cbf 7d71 edbe 606a 613d 9cbc ecbe
000000c0: d4e5 383d 5c2d 09bf a5af 0c3f 0607 7b3e
000000d0: 9c6b e1be e04c 37bf fdd7 84bf 6025 2b3e
000000e0: 5e84 523d 7dda bc3d 3ecc 87be 1e9d f7be
000000f0: a6b1 6fbe 5e3e 13be 7cc0 993d 6dcf 313e
00000100: ea03 093e bfe7 1a3d f3c3 3cbf 0da9 dc3e
00000110: 5e70 623e d848 193f 6c8c 203e 13d7 a73e
00000120: 1eb4 71be b83f 9dbe 1be4 b23e b478 a9be
00000130: fd7b 0cbf a508 e43e f1e7 48bf 3e21 223f
00000140: a975 5ebe 7e61 ecbe d84e 37be 85c7 c7be
00000150: c420 91be 36f5 71bd 9168 50bf adad 9fbe
00000160: f59f 303e 8041 f63e 1598 1ebf bc57 29bf
00000170: bb9d 423f 680f 87be 34a0 473e c2c5 50bf
00000180: ed86 0f3f c9ab 98be c4fa 54bf 0bad 533e
00000190: 17f6 debe de96 1a3e 328a b9be f8f3 27be
000001a0: a065 b7bd f8f2 5fbe 27c4 083e 84b7 aebd
000001b0: 9781 6d3d a605 e8bd 8809 21bf f095 64bf
000001c0: 2e14 91be 7bbf c3be d600 243f dfb2 bd3e
000001d0: b8d6 bbbe 606b 83bf ab41 823e a2bb 25be
000001e0: c710 54bf 68e9 1f3e b8c7 0c3d 65a5 16be
000001f0: 83b8 d73d 1cee 1b3c 34c4 42be e40b 85be
00000200: c264 2a3d bbab d5bc 3bfa 99bd 7074 5bbe
00000210: 9a65 cbbe 0818 bebb 449d e2be 829c e53e
00000220: ce74 f23e f699 95bf 5981 93bf 17ac 523f
00000230: b52a 2a3f fa13 63bf 7fbd 47bf c701 3abe
00000240: 1a80 dc3d d0fb 523d f56a 81bf f830 ae3e
00000250: 3ba1 97bf b3c6 883e a825 28bf 20f9 4d3f
00000260: b3ed bebf 9862 c0bf 4f0c fdbe cac7 65be
00000270: acad a23d c4ab acbd 947d 43be 7d53 f3bd
00000280: a08f 563d e342 f63b e224 e33d 09c4 9e3e
00000290: d02f 183e 0338 e5be b275 3f3f 5c58 c23e
000002a0: f945 9bbe 0497 4fbe 3301 303e 082f 25bf
000002b0: 5c4f 67bd 68cd 4bbf bef7 d0bf 1045 3bbf
000002c0: d6af 9f3e e098 2d3e a863 8dbd 2b09 8cbe
000002d0: 6a75 113f 4e95 c73e 06a9 033f c1d6 d2bd
000002e0: afc4 36bf 532b 9ebe 2415 83be 7d1f 89bd
000002f0: b3e8 9cbe ad88 ba3e a9b7 dabe 57cf c8be
00000300: 42f9 21be f87d ce3c 4b03 aebc f3e7 5ebe
00000310: c52e a2be a885 d9be e738 023e f04a 11be
00000320: 6a70 73bf acdb 8d3e be08 b53c b243 8abe
00000330: 730e b0be 3593 94be 299d a83b 32af febe
00000340: 9c09 893c 16de 81be 24e2 0dbe 2e04 233e
00000350: 162c 5a3d 6fbc 5fbe 3e90 b93c 5e8b 173d
00000360: 9757 a8be 2124 d0be e2d3 30be 7004 85be
00000370: 9299 e5bd 57c1 4c3e b15a 24be e7b9 c9be
00000380: 1066 54be ef41 3abe 9297 50be 662e cc3c
00000390: b819 19bd c210 523e b523 893e 062e 52bf
000003a0: 1946 4bbf fc8c 043f ee63 82bf 6641 18bf
000003b0: 5c72 f2be f339 753f 1095 bbbf 6367 bbbf
000003c0: f21e 0d3f e646 54bf 7894 d63e d46c ddbb
000003d0: 0eb9 ec3e 4f86 10bf fda3 c13d d01d 44bf
000003e0: 7a7c a83e 595d b93e d838 74be f1f3 ee3e
000003f0: 1623 133e 0397 be3f 455c 073e 2606 4fbf

linear1.bias f4 [256]
-1.1168286 -0.3764601 -0.36594096 0.101322286 -0.417657 -0.51634926 -0.6040264 -0.16763322
-0.07808768 -0.422696 0.36001158 -0.32270193 0.32206365 0.15758812 -0.4911468 -0.6301812
-0.6782234 -0.0767995 -0.48221377 -0.073657155 -0.2108175 -0.12884289 -1.2746984 0.106278576
-0.25188544 -0.1917678 0.097388655 -0.2753456 -0.3593802 -0.62354195 -0.68049926 0.016098866
-0.18098827 -0.70105743 -0.5837424 -0.1662367 -0.75806963 -0.09063024 0.27099106 -0.65933424
-0.5737834 -0.8824227 -0.19417039 -0.0010626575 -0.4623159 0.53986704 -0.23736453 -0.38939226
-0.35108894 0.6293393 -0.3323879 0.009268248 0.058169633 0.33453232 -0.6390151 -0.04205161
-0.35473797 -0.68543005 0.5630087 0.27482077 -0.3745351 -0.5353723 -0.8670086 -0.8367647
-1.0384033 -1.4379375 -1.1038196 -0.037951864 -0.5643189 -0.79588187 -0.60726696 -0.70362914
-0.26131114 0.51247376 -0.37818107 -0.06835383 -0.4187621 -0.5804744 -0.6862442 -0.4961411
-0.62862176 -0.22026716 -0.59033436 -0.37386304 -0.5319909 -0.6225219 0.29184145 0.33764684
-0.68764937 0.11912218 -0.28382367 -0.13957037 -0.5906791 -0.45367897 0.0039359643 -0.20593287
0.19330475 -0.30215612 -0.20967735 -0.44749162 -1.0500724 -0.6555915 -0.50571615 -0.038560312
-0.18924278 -0.42263418 -0.25647113 -0.18270738 -0.054147635 -0.4307224 -0.701386 0.2679004
-0.24878162 0.11795319 -0.76554644 -0.16870393 -0.48194247 -0.82663745 -0.9181866 0.57555985
-1.3367678 -0.14870435 -0.8145031 -1.3969362 -0.24773176 -0.02076689 -0.5203363 -0.34554455
-0.22660756 -0.6339837 0.15317863 0.7033322 -0.20799012 -0.5889889 -0.21414468 -0.047285173
-0.108543135 -0.15903834 0.6335611 -0.78739643 -0.45781183 -0.4033713 0.12467994 0.7142227
-0.52686554 -0.21210626 -0.40655896 -0.86633193 -0.69756114 0.6689778 -0.31957015 0.5980556
-0.3131462 0.3791334 -0.1844643 -0.493392 -0.16748503 -1.1298939 -0.37991494 -0.16580813
-0.38928306 -0.4422757 -0.39060894 -0.048934888 -0.27926695 -0.53986293 -0.091352314 -0.30523324
-0.57694393 -0.71611214 -0.73399174 -0.52317804 -0.8884124 0.58098644 -0.62719417 -0.08812653
-0.2885741 -0.12929276 -0.24739961 -0.56758744 -0.56192964 -0.3160871 -0.5021837 -0.3488692
-0.7024937 0.2221705 -0.3650515 -0.34664574 -0.09591671 -0.40671897 -0.3235284 -0.35234374
-1.0501419 -1.0569365 0.19723977 -0.43113947 -0.25142208 0.2447931 -0.08819108 0.14252414
-0.38557538 -0.17481232 0.12921497 -0.65446395 -0.5246222 0.20186627 -0.092958994 -0.48740214
0.73425716 -0.56051046 -0.07750831 -0.367934 -1.3779827 -0.24655634 0.21733387 -0.7941808
0.37516063 -0.46048102 -1.0834922 -0.04494069 -0.48981336 -0.324886 -0.24336715 -0.20749871
-0.13123116 -0.29270038 0.23526193 -0.11050754 -0.20472802 -0.6099434 -0.2217584 -0.51951766
-0.37410066 -0.34624776 0.15641384 0.48334616 0.58378553 -0.5444864 -0.13963948 -1.2963783
-0.708942 0.036540274 -0.5795397 0.07402633 -0.29825094 0.3800594 -0.71058315 -0.33611417
0.12981644 -0.3018168 0.21962366 0.83017373 0.29284978 -0.36231405 -1.4136596 -0.43457967
00000000: 3df4 8ebf 61bf c0be 9d5c bbbe 0f82 cf3d
00000010: 23d7 d5be 772f 04bf 79a1 1abf 0ba8 2bbe
00000020: 6fec 9fbd 9c6b d8be 7053 b83e 3039 a5be
00000030: 87e5 a43e c85e 213e 9877 fbbe 8e53 21bf
00000040: 0ca0 2dbf 0e49 9dbd b9e4 f6be 90d9 96bd
00000050: 8be0 57be 64ef 03be 5129 a3bf 95a8 d93d
00000060: 21f7 80be c75e 44be b473 c73d 19fa 8cbe
00000070: ae00 b8be 72a0 1fbf 3335 2ebf c5e1 833c
00000080: fd54 39be 8078 33bf 2470 15bf f439 2abe
00000090: da10 42bf 599c b9bd 57bf 8a3e 21ca 28bf
000000a0: 78e3 12bf 74e6 61bf 9ad4 46be de48 8bba
000000b0: abb4 ecbe ba34 0a3f b00f 73be 6c5e c7be
000000c0: eec1 b3be 611c 213f bf2e aabe dad9 173c
000000d0: 4843 6e3d d247 ab3e 7e96 23bf 4f3e 2cbd
000000e0: 37a0 b5be 5878 2fbf 5721 103f 4fb5 8c3e
000000f0: 11c3 bfbe 290e 09bf 47f4 5dbf 3636 56bf
00000100: 66ea 84bf 560e b8bf f649 8dbf 6a73 1bbd
00000110: 3477 10bf eabe 4bbf d975 1bbf 0a21 34bf
00000120: 93ca 85be 7b31 033f f3a0 c1be 18fd 8bbd
00000130: fc67 d6be f899 14bf b3ad 2fbf 3506 febe
00000140: 5bed 20bf b78d 61be 2720 17bf fa6a bfbe
00000150: 8e30 08bf 985d 1fbf 3e6c 953e 0ce0 ac3e
00000160: ca09 30bf 54f6 f33d 5651 91be 89eb 0ebe
00000170: bf36 17bf 9c48 e8be 43f9 803b 11e0 52be
00000180: aef1 453e 35b4 9abe a9b5 56be 9f1d e5be
00000190: c668 86bf d8d4 27bf 9d76 01bf 6bf1 1dbd
000001a0: dcc8 41be 8263 d8be 2f50 83be a517 3bbe
000001b0: e9c9 5dbd a587 dcbe 088e 33bf 3e2a 893e
000001c0: 9cc0 7ebe 7191 f13d dafa 43bf b9c0 2cbe
000001d0: 2ac1 f6be 839e 53bf 470e 6bbf e457 133f
000001e0: 351b abbf f445 18be 4683 50bf cece b2bf
000001f0: 65ad 7dbe 531f aabc c234 05bf 37eb b0be
00000200: d00b 68be c14c 22bf dcda 1c3e 940d 343f
00000210: 5dfb 54be fac7 16bf be48 5bbe 19ae 41bd
00000220: dd4b debd f2da 22be 0f31 223f d092 49bf
00000230: 5066 eabe af86 cebe 3258 ff3d 4dd7 363f
00000240: a9e0 06bf 6232 59be 7f28 d0be eec7 5dbf
00000250: 5e93 32bf 2142 2b3f b39e a3be 2c1a 193f
00000260: b354 a0be c61d c23e 36e4 3cbe e09d fcbe
00000270: 3281 2bbe 5da0 90bf 3684 c2be 9bc9 29be
00000280: 1c50 c7be f671 e2be e5fd c7be f36f 48bd
00000290: 14fc 8ebe 7534 0abf ec16 bbbd 8847 9cbe
000002a0: 99b2 13bf 2053 37bf e2e6 3bbf ffee 05bf
000002b0: ff6e 63bf 87bb 143f cc8f 20bf af7b b4bd
000002c0: fcbf 93be 5265 04be 5356 7dbe 694d 11bf
000002d0: 9fda 0fbf 2bd6 a1be 1c8f 00bf fc9e b2be
000002e0: a1d6 33bf aa80 633e 08e8 babe 8d7b b1be
000002f0: fb6f c4bd 783d d0be 84a5 a5be 6666 b4be
00000300: 0d6b 86bf b249 87bf 39f9 493e 50be dcbe
00000310: 65ba 80be 0bab 7a3e 869d b4bd d9f1 113e
00000320: 236a c5be 0002 33be ee50 043e f38a 27bf
00000330: a44d 06bf 08b6 4e3e 4961 bebd c68c f9be
00000340: 47f8 3b3f 9d7d 0fbf adbc 9ebd d861 bcbe
00000350: bd61 b0bf 4479 7cbe c58c 5e3e 6f4f 4bbf
00000360: 0e15 c03e 2bc4 ebbe dfaf 8abf bb13 38bd
00000370: d1c8 fabe 7557 a6be 3d35 79be 8b7a 54be
00000380: 7661 06be d3dc 95be 81e8 703e c751 e2bd
00000390: 39a4 51be 4025 1cbf a214 63be 1cff 04bf
000003a0: 1f8a bfbe 6347 b1be f32a 203e 2679 f73e
000003b0: f872 153f 7663 0bbf a7fd 0ebe b9ef a5bf
000003c0: 397d 35bf 41ab 153d b75c 14bf 1e9b 973d
000003d0: 59b4 98be 2597 c23e c7e8 35bf 2817 acbe
000003e0: 9aee 043e bb87 9abe 06e5 603e 4486 543f
000003f0: 68f0 953e 3a81 b9be ccf2 b4bf 3a81 debe

linear2.weight f4 [3, 256]
4.4819527 -0.33770066 -0.06861603 0.23338991 1.9101468 0.036570642 -0.06356695 0.2809501
0.24620692 0.08794974 0.42208794 -0.0145823425 0.2984282 0.32231092 0.07817243 1.5438232
5.8638754 -0.016712708 0.71541524 0.09853937 0.008720888 -0.00045210993 1.0801545 -0.51363635
0.035880208 -0.10350444 0.017830823 -0.020961106 0.016740473 0.0017235024 1.1921794 -0.6319254
-0.011364832 -0.3060001 -0.06997886 0.20854558 7.6178837 -0.71037835 0.22833124 0.007447074
-0.36770934 7.635486 3.977696 0.22359447 -0.0010369135 0.43854493 0.003055827 -0.30962297
-0.014731303 0.4383466 0.0042622467 -0.0009015295 -0.009154302 0.21403787 3.2816856 -0.012076732
9.843124 -0.49986318 0.40062645 0.51936775 -0.0012946738 0.81818956 0.011008429 5.414006
6.6797504 5.4773865 -0.24826038 0.2110906 0.43575156 -0.03389005 0.15021892 -0.0062873648
-0.021878937 0.39340082 -0.98470765 0.13344322 7.9803467 0.088359006 0.009222593 8.936943
-0.33874494 -0.06315878 -0.5506725 -0.039080895 0.06766602 -0.006390768 0.68894994 0.27845797
1.9622391 -0.0069910223 -0.004975036 -0.60893625 0.011185916 0.2326597 -0.0015499949 4.949458
-0.3057177 0.04415483 -0.8674655 0.0022022936 2.5847087 8.148659 -0.63956904 -0.01704737
-0.71941346 0.20663412 7.2184525 0.0021179912 0.13443929 -0.00024406277 -0.047430113 0.0028333412
-0.046830118 0.68418354 0.006274606 -0.6450082 0.020939326 0.07931999 8.942346 0.141216
0.009945747 6.525564 2.6285236 0.2390276 1.9549892 -0.038771596 0.23885074 -0.016099632
4.251744 1.5788078 0.122348204 0.23689307 -0.022520898 0.025769075 -0.012146298 -0.0008501507
0.031159252 -0.0053374744 0.16235596 3.511135 4.975588 -0.7616733 -0.10723806 0.8918884
4.9783564 0.008323206 -0.0105164815 6.317388 0.00770873 0.8858688 0.06758445 -0.034702454
-0.032964442 0.013669489 0.0150449425 -0.25515938 0.007287631 0.22206183 -1.1616521 -0.7843621
-0.01220237 6.509902e-05 0.027448643 -0.017112004 0.022262182 -0.14702539 -0.0038779052 0.03874312
0.0034169531 0.21053615 0.0050823763 6.200392 -0.017090922 0.29471618 2.8845077 -0.025331557
-0.02027768 -0.014951976 -0.054897577 0.023818128 3.5065165 0.022180699 0.09737441 0.33017108
0.04138967 0.26915142 -0.027071835 0.06823982 0.0047971257 0.08756349 3.3357553 -0.31928506
4.5836296 0.3387605 0.12517036 0.016408186 0.04869801 0.52472687 -0.009406179 0.3103846
2.884874 -0.0021639226 -0.016258353 -0.30332536 -0.010995031 2.2525616 0.30395025 1.572087
0.21771279 4.8367496 0.01066411 -0.0014501526 1.0358244 -0.047170572 1.6655872 2.9088895
0.8520273 0.4030341 3.7374408 -0.017060028 -0.00020858995 0.0023731564 0.2667069 0.00462031
-0.00017280763 -0.031243628 2.9576223 0.09215133 2.175023 3.7084255 -0.1366855 0.3454659
-0.025462557 0.15667844 0.1665647 -0.056363165 0.4309918 -0.09649283 -0.015845805 2.3999841
0.037228495 -0.026703104 0.4918982 0.13490158 -0.016596587 6.1308455 -0.18869327 0.0100658545
0.30415744 0.011184112 -0.2553816 0.52573603 0.17284773 0.003981553 5.620897 0.50075567
00000000: 286c 8f40 1ae7 acbe 9086 8cbd c4fd 6e3e
00000010: b17f f43f 19cb 153d 642f 82bd b1d8 8f3e
00000020: ab1d 7c3e fe1e b43d e91b d83e c7ea 6ebc
00000030: 95cb 983e f005 a53e de18 a03d 009c c53f
00000040: dea4 bb40 17e9 88bc 7425 373f 02cf c93d
00000050: 0ee2 0e3c 2b09 edb9 8142 8a3f ac7d 03bf
00000060: 20f7 123d 23fa d3bd f211 923c a0b6 abbc
00000070: 5123 893c 25e7 e13a 5699 983f ddc5 21bf
00000080: 8f33 3abc 0cac 9cbe 1451 8fbd f98c 553e
00000090: b4c5 f340 5bdb 35bf aacf 693e 9606 f43b
000000a0: 6644 bcbe e755 f440 9292 7e40 f3f5 643e
000000b0: 0be9 87ba f688 e03e 4544 483b e786 9ebe
000000c0: 905b 71bc f76e e03e 51aa 8b3b 9f54 6cba
000000d0: edfb 15bc be2c 5b3e 2307 5240 7cdd 45bc
000000e0: 707d 1d41 11ee ffbe e91e cd3e 49f5 043f
000000f0: 0bb2 a9ba df74 513f b35c 343c 8a3f ad40
00000100: 84c0 d540 c046 af40 f837 7ebe 2228 583e
00000110: d41a df3e 4bd0 0abd fdd2 193e 3d06 cebb
00000120: 753b b3bc d56b c93e cd15 7cbf 57a5 083e
00000130: 005f ff40 91f5 b43d 5c1a 173c b8fd 0e41
00000140: fa6f adbe 6459 81bd dff8 0cbf 4a13 20bd
00000150: 7b94 8a3d a669 d1bb 065f 303f 0b92 8e3e
00000160: a72a fb3f f214 e5bb a005 a3bb 3fe3 1bbf
00000170: 2245 373c 583e 6e3e 3329 cbba f661 9e40
00000180: 0887 9cbe b2db 343d 3812 5ebf 5b54 103b
00000190: de6b 2540 e860 0241 ccba 23bf eda6 8bbc
000001a0: 7b2b 38bf e597 533e 90fd e640 ffcd 0a3b
000001b0: 74aa 093e 1aeb 7fb9 1446 42bd 94af 393b
000001c0: f0d0 3fbd a726 2f3f 369b cd3b 421f 25bf
000001d0: f388 ab3c 8572 a23d d913 0f41 ed9a 103e
000001e0: 7df3 223c 6cd1 d040 bb39 2840 a7c3 743e
000001f0: 163d fa3f f7ce 1ebd 4a95 743e 60e3 83bc
00000200: 490e 8840 6016 ca3f b291 fa3d 1994 723e
00000210: bf7d b8bc ab19 d33c 4401 47bc a6dc 5eba
00000220: b041 ff3c fbe5 aebb a440 263e 70b6 6040
00000230: 0438 9f40 05fd 42bf a19f dbbd cc52 643f
00000240: b24e 9f40 0e5e 083c 524d 2cbc 0b28 ca40
00000250: 8499 fc3b 4cc8 623f b769 8a3d 2924 0ebd
00000260: b905 07bd fef5 5f3c 107f 763c 40a4 82be
00000270: 14cd ee3b 2d64 633e 04b1 94bf f4cb 48bf
00000280: 73ec 47bc c585 8838 fadb e03c 792e 8cbc
00000290: 2e5f b63c d38d 16be 7424 7ebb 1bb1 1e3d
000002a0: f6ee 5f3b ca96 573e 108a a63b 9c69 c640
000002b0: 4302 8cbc 0ae5 963e c69b 3840 2084 cfbc
000002c0: 611d a6bc 22f9 74bc 48dc 60bd 3c1e c33c
000002d0: c46a 6040 4cb4 b53c 3c6c c73d 2f0c a93e
000002e0: 3788 293d 37ce 893e c1c5 ddbc 52c1 8b3d
000002f0: 3531 9d3b 7d54 b33d 047d 5540 5579 a3be
00000300: 18ad 9240 0472 ad3e a92c 003e 766a 863c
00000310: 9177 473d 8054 063f 601c 1abc bbea 9e3e
00000320: c7a1 3840 99d0 0dbb 3d30 85bc 764d 9bbe
00000330: 8124 34bc f829 1040 5e9f 9b3e 263a c93f
00000340: 1af0 5e3e a7c6 9a40 85b8 2e3c 0c13 beba
00000350: e595 843f ee35 41bd f631 d53f 3f2b 3a40
00000360: 761e 5a3f 7c5a ce3e 3b32 6f40 79c1 8bbc
00000370: f0b8 5ab9 f586 1b3b cf8d 883e f865 973b
00000380: b233 35b9 a3f2 ffbc af49 3d40 d6b9 bc3d
00000390: 9433 0b40 d856 6d40 49f7 0bbe e8e0 b03e
000003a0: da96 d0bc 5070 203e f08f 2a3e 10dd 66bd
000003b0: f5aa dc3e 089e c5bd 10cf 81bc 5799 1940
000003c0: e87c 183d 78c0 dabc 15da fb3e a423 0a3e
000003d0: 91f5 87bc e32f c440 cf38 41be 41eb 243c
000003e0: 86ba 9b3e 913d 373c 61c1 82be a396 063f
000003f0: fffe 303e b077 823b 63de b340 8631 003f

linear2.bias f4 [3]
0.66276646 -0.6619695 -0.45890534
00000000: 10ab 293f d576 29bf a4f5 eabe
